app/src/main/assets/mohitModel.tflite (tflite, 282816 bytes, 4 tensors)

sequential_2/dense_5/BiasAdd/ReadVariableOp f4 [10]
0.023802936 -0.30141258 -0.18709236 -0.15852237 0.015257111 -0.09318252 0.023394655 -0.22399487
0.6848444 0.019365309
00000000: 60fe c23c c052 9abe 2495 3fbe b053 22be
00000010: f6f8 793c 7ad6 bebd 26a6 bf3c e95e 65be
00000020: f651 2f3f ffa3 9e3c

sequential_2/dense_4/BiasAdd/ReadVariableOp f4 [352]
0.18031779 -0.002244607 0.03815599 -0.020593422 0.09846171 0.045540046 0.3277932 -0.043091442
0.29605192 -0.09283891 -0.27754977 -0.11516678 -0.0011191529 0.14216667 0.045240384 -0.16374491
0.2815382 -0.034238033 -0.25957972 -0.16562738 -0.27227175 -0.017036634 0.020630633 -0.18490303
-0.11201851 0.023107 -0.022327723 -0.29677188 0.009734417 -0.18520236 0.037376903 -0.14289434
-0.08952023 0.0062123826 0.046051376 -0.09671796 -0.05445376 0.085036635 -0.007874951 0.13865687
0.024712699 -0.14562716 -0.022146303 -0.0054956744 0.052660756 -0.0049353414 0.18275452 0.12461787
-0.1672652 -0.021873038 -0.2959051 -0.22504646 0.037429407 -0.045197498 -0.07648058 -0.15863608
-0.020698044 -0.12716754 -0.20751531 0.16400558 0.006295053 0.08772193 0.14784999 0.09111547
-0.24512346 0.11199094 -0.11898839 -0.32849333 0.07195557 -0.077309266 -0.12540668 0.15539724
0.07113789 0.060573358 -0.05932674 -0.09177689 -0.18872 0.0026409714 -0.16633172 -0.16137101
-0.1465068 -0.1537881 0.14283311 -0.043596797 -0.04330901 -0.39819154 -0.20318118 -0.51785105
-0.0021322914 -0.06503294 -0.44656318 -0.0051164245 0.04327924 -0.19991872 -0.122233406 -0.1568951
0.09121648 -0.041216772 0.07592127 -0.06099603 -0.34560764 -0.14300635 -0.10237081 0.05941078
0.08059219 0.13207239 0.013154406 -0.1430923 -0.3104857 0.15660393 0.027184881 -0.14396955
-0.18688981 0.110291906 0.1234868 0.037304338 -0.0029427102 -0.11402483 -0.093749285 -0.18192275
0.03126907 0.20885703 0.1679771 -0.20915487 -0.120289266 -0.20076026 0.09939259 -0.009204422
0.08535 0.06260114 0.14394106 -0.09666088 0.24230659 0.09672952 0.064435005 -0.26753372
0.24274951 0.025819212 0.06676596 0.059305605 0.052964613 -0.08030158 0.057292197 -0.012304432
0.052502185 0.020757569 -0.13193291 0.0137250405 0.13360353 -0.34474382 -0.091176964 -0.003475823
-0.01815556 0.12281369 -0.0018855334 -0.09577673 -0.06176081 -0.12692393 0.12842467 -0.21832862
0.16177243 0.027363481 0.03874113 0.1757132 -0.08663037 -0.042305417 0.041339982 -0.12692745
-0.017967962 0.20185153 -0.036342476 -0.061088245 -0.00930575 -0.14541902 0.2269902 -0.15225331
0.0006668841 -0.04325311 -0.039281763 0.03807469 0.0111640375 -0.080689095 0.011957366 -0.05523645
0.18090543 -0.04071912 0.14683263 0.04468937 -0.10201141 -0.20174858 -0.14684111 -0.2742622
0.10673796 0.18341245 0.1670476 -0.085694075 0.12007944 0.0072589302 -0.029471632 0.10101916
-0.08988194 0.20879272 -0.020469975 0.1527538 0.0057466077 0.15336688 -0.061594162 0.06209489
-0.16121632 -0.32308954 -0.09064595 0.10607795 0.010259432 0.16168933 -0.0438804 0.03901577
0.072810225 -0.062731184 -0.15544635 0.1085789 0.15050893 -0.19122352 -0.07406028 -0.023235269
-0.22473224 0.012990647 0.061555233 0.15457192 -0.044587508 0.11291136 0.25378507 -0.07352825
-0.20358752 0.048803333 0.10328133 0.17976813 -0.04589012 -0.0896659 0.00592178 -0.06297553
0.16676521 -0.015152007 -0.27824524 0.14957711 -0.04704204 -0.024862515 0.07614372 -0.107948065
-0.17981817 -0.015333466 0.12796567 0.06047069 -0.12052276 -0.106062196 0.07302781 -0.09977537
00000000: 3aa5 383e 421a 13bb 7549 1c3d 89b3 a8bc
00000010: 4ba6 c93d 3388 3a3d 83d4 a73e a780 30bd
00000020: 1e94 973e 5422 bebd 011b 8ebe 90dc ebbd
00000030: 8ab0 92ba 2494 113e fb4d 393d bfac 27be
00000040: c625 903e 2e3d 0cbd a2e7 84be 399a 29be
00000050: 3467 8bbe 6990 8bbc 9301 a93c 3857 3dbe
00000060: f669 e5bd e44a bd3c a1e8 b6bc 7cf2 97be
00000070: 1b7d 1f3c b0a5 3dbe 8618 193d e552 12be
00000080: 6256 b7bd 3e91 cb3b 5ea0 3c3d 1114 c6bd
00000090: e80a 5fbd b027 ae3d f005 01bc 11fc 0d3e
000000a0: 4972 ca3c 491f 15be 2a6c b5bc 0f15 b4bb
000000b0: ceb2 573d a5b8 a1bb 0024 3b3e a737 ff3d
000000c0: 9247 2bbe 162f b3bc e080 97be 9472 66be
000000d0: 944f 193d 0321 39bd daa1 9cbd 7f71 22be
000000e0: f28e a9bc 3538 02be e57e 54be 14f1 273e
000000f0: bb46 ce3b 8ea7 b33d fd65 173e bf9a ba3d
00000100: a501 7bbe 825b e53d 2fb0 f3bd 4730 a8be
00000110: 715d 933d 5254 9ebd 9c6a 00be 7420 1f3e
00000120: beb0 913d c51b 783d 9900 73bd 86f5 bbbd
00000130: d13f 41be 2614 2d3b dd52 2abe 713e 25be
00000140: e105 16be a17a 1dbe d842 123e 8e92 32bd
00000150: ca64 31bd c3df cbbe ba0e 50be e391 04bf
00000160: eabd 0bbb fd2f 85bd eea3 e4be aea7 a7bb
00000170: 9345 313d 7eb7 4cbe 8255 fabd 1ca9 20be
00000180: b5cf ba3d ebd2 28bd 9c7c 9b3d f9d6 79bd
00000190: 7cf3 b0be 4270 12be caa7 d1bd b858 733d
000001a0: 850d a53d fc3d 073e 9485 573c ca86 12be
000001b0: fbf7 9ebe c85c 203e d4b2 de3c c16c 13be
000001c0: 0b60 3fbe b9e0 e13d a6e6 fc3d 6fcc 183d
000001d0: 7cda 40bb da85 e9bd a0ff bfbd f549 3abe
000001e0: ff13 003d 9ede 553e 3002 2c3e b22c 56be
000001f0: 385a f6bd 1994 4dbe 588e cb3d 25ce 16bc
00000200: fbcb ae3d 0735 803d 4965 133e 24f6 c5bd
00000210: 381f 783e 201a c63d 80f6 833d 2efa 88be
00000220: 5493 783e d082 d33c 97bc 883d 6fea 723d
00000230: 6cf1 583d 2875 a4bd 39ab 6a3d 8798 49bc
00000240: 880c 573d c70b aa3c 6c19 07be fede 603c
00000250: 5dcf 083e 4382 b0be fdba babd a2ca 63bb
00000260: f8ba 94bc be85 fb3d 0124 f7ba 9726 c4bd
00000270: e7f8 7cbd 59f8 01be c281 033e 8a91 5fbe
00000280: aca7 253e 6129 e03c 05af 1e3d 29ee 333e
00000290: 436b b1bd 7248 2dbd 1d54 293d 45f9 01be
000002a0: 8c31 93bc 2bb2 4e3e d9db 14bd ab37 7abd
000002b0: 2577 18bc b9e8 14be 1e70 683e 4be8 1bbe
000002c0: d6d1 2e3a 2c2a 31bd eae5 20bd 35f4 1b3d
000002d0: 5ee9 363c 5340 a5bd d4e8 433c 9e3f 62bd
000002e0: 463f 393e 18c9 26bd 4b5b 163e 330c 373d
000002f0: 5ceb d0bd 2e97 4ebe 845d 16be 186c 8cbe
00000300: 6e99 da3d 79d0 3b3e 870e 2b3e 6080 afbd
00000310: 36ec f53d 52dc ed3b 7e6e f1bc 22e3 ce3d
00000320: 0614 b8bd c2cd 553e a6b0 a7bc 7e6b 1c3e
00000330: 0a4e bc3b 350c 1d3e 294a 7cbd 3657 7e3d
00000340: e415 25be fe6b a5be 95a4 b9bd 653f d93d
00000350: 2d17 283c e391 253e efbb 33bd 00cf 1f3d
00000360: 871d 953d 3579 80bd 542d 1fbe 9d5e de3d
00000370: 031f 1a3e 19d0 43be ebac 97bd e457 bebc
00000380: 3520 66be b9d6 543c 5721 7c3d 1a48 1e3e
00000390: 64a1 36bd 123e e73d 1ef0 813e fb95 96bd
000003a0: 3f79 50be 01e6 473d 2985 d33d 2315 383e
000003b0: 47f7 3bbd c1a2 b7bd 7e0b c23b 51f9 80bd
000003c0: 80c4 2a3e 2040 78bc 2976 8ebe be2a 193e
000003d0: 27af 40bd 79ac cbbc 3df1 9b3d e013 ddbd
000003e0: 4122 38be 3839 7bbc 6f09 033e 1db0 773d
000003f0: a3d4 f6bd 2337 d9bd 9b8f 953d 0757 ccbd

sequential_2/dense_5/MatMul i1 [10, 352] scale=0.01320436 zero_point=0
0.17165668 0.47535697 -0.039613083 0.29049593 0.35651773 -0.51497006 0.0 -0.039613083
-0.18486105 -0.21126977 0.18486105 -0.21126977 -0.35651773 -0.039613083 0.1980654 0.21126977
-0.31690466 0.2640872 -0.5413788 -0.31690466 -0.079226166 -0.5941962 -0.5413788 0.48856133
0.17165668 0.02640872 0.25088283 0.17165668 -0.11883924 -0.0660218 -0.25088283 -0.17165668
-0.42253953 0.330109 0.18486105 0.079226166 0.092430525 -0.21126977 -0.039613083 0.10563488
-0.7262398 0.01320436 0.039613083 0.17165668 -0.660218 -0.8582834 -0.44894826 -0.58099186
0.1980654 0.21126977 0.18486105 0.3037003 0.05281744 -0.330109 -0.05281744 -0.42253953
0.01320436 -0.092430525 -0.092430525 0.27729157 -0.48856133 -0.75264853 0.25088283 0.25088283
0.21126977 -0.35651773 -0.039613083 0.05281744 -0.17165668 -0.660218 0.039613083 -0.9639183
0.27729157 0.1980654 -0.58099186 -0.805466 -0.22447413 -0.50176567 -0.44894826 -0.0660218
-0.10563488 0.1320436 0.330109 0.15845233 -0.092430525 -0.15845233 -0.35651773 -0.15845233
-0.10563488 -0.42253953 0.23767848 0.10563488 -0.81867033 0.34331337 0.0660218 0.0660218
0.1320436 0.11883924 -0.40933517 -0.34331337 0.21126977 0.039613083 -0.42253953 0.01320436
0.38292646 -0.7262398 0.4357439 0.22447413 0.1980654 -0.1320436 -0.3961308 0.02640872
0.40933517 -0.1320436 -0.68662673 0.18486105 -0.29049593 0.05281744 -0.55458313 0.22447413
0.1320436 -0.7922616 0.0660218 -0.29049593 -0.31690466 -0.6998311 -0.10563488 -0.0660218
-0.48856133 -0.6998311 0.50176567 0.15845233 0.01320436 -0.3961308 -0.23767848 0.14524797
0.1320436 -0.35651773 0.15845233 -0.18486105 0.40933517 -0.48856133 0.05281744 0.35651773
-0.660218 -0.14524797 -0.51497006 -0.01320436 -0.6998311 0.18486105 -0.29049593 0.0660218
0.1980654 0.47535697 -0.5413788 -0.29049593 0.15845233 -0.34331337 -0.17165668 -0.29049593
0.3037003 0.3961308 0.15845233 0.10563488 -0.8714878 -0.17165668 -0.01320436 -0.15845233
0.18486105 -0.31690466 -0.55458313 0.18486105 0.11883924 -0.05281744 -1.0035313 0.10563488
0.21126977 0.31690466 0.2640872 0.02640872 0.31690466 0.15845233 -0.31690466 -0.23767848
-0.4621526 -0.48856133 -0.330109 0.5281744 -0.079226166 -0.6074006 0.29049593 0.14524797
0.3961308 -0.10563488 -0.47535697 0.01320436 0.079226166 0.11883924 0.2640872 -0.1320436
-0.8714878 0.0 -0.1980654 -0.079226166 0.17165668 -0.1980654 -0.7262398 0.42253953
0.11883924 0.15845233 0.1320436 0.14524797 -0.64701366 -0.6338093 -0.21126977 -0.079226166
0.1320436 -0.34331337 0.34331337 -0.56778747 0.25088283 0.0660218 0.44894826 -0.990327
0.039613083 -0.0660218 -0.25088283 -0.25088283 0.10563488 0.14524797 -0.660218 -0.27729157
-0.22447413 0.2640872 -0.22447413 -0.092430525 -0.17165668 -0.3697221 -0.29049593 -0.6074006
-0.079226166 -0.2640872 0.21126977 -0.21126977 0.05281744 -0.6074006 -0.40933517 -0.62060493
-0.77905726 0.02640872 -0.01320436 0.51497006 -0.88469213 -0.0660218 0.02640872 -0.47535697
00000000: 0d24 fd16 1bd9 00fd f2f0 0ef0 e5fd 0f10
00000010: e814 d7e8 fad3 d725 0d02 130d f7fb edf3
00000020: e019 0e06 07f0 fd08 c901 030d cebf ded4
00000030: 0f10 0e17 04e7 fce0 01f9 f915 dbc7 1313
00000040: 10e5 fd04 f3ce 03b7 150f d4c3 efda defb
00000050: f80a 190c f9f4 e5f4 f8e0 1208 c21a 0505
00000060: 0a09 e1e6 1003 e001 1dc9 2111 0ff6 e202
00000070: 1ff6 cc0e ea04 d611 0ac4 05ea e8cb f8fb
00000080: dbcb 260c 01e2 ee0b 0ae5 0cf2 1fdb 041b
00000090: cef5 d9ff cb0e ea05 0f24 d7ea 0ce6 f3ea
000000a0: 171e 0c08 bef3 fff4 0ee8 d60e 09fc b408
000000b0: 1018 1402 180c e8ee dddb e728 fad2 160b
000000c0: 1ef8 dc01 0609 14f6 be00 f1fa 0df1 c920
000000d0: 090c 0a0b cfd0 f0fa 0ae6 1ad5 1305 22b5
000000e0: 03fb eded 080b ceeb ef14 eff9 f3e4 ead2
000000f0: faec 10f0 04d2 e1d1 c502 ff27 bdfb 02dc

sequential_2/dense_4/MatMul i1 [352, 784] scale=0.012967374 zero_point=0
0.025934748 -0.012967374 0.051869497 -0.038902123 -0.038902123 -0.051869497 0.038902123 0.051869497
-0.038902123 -0.012967374 -0.025934748 0.038902123 0.10373899 0.14264111 0.090771616 0.012967374
0.038902123 -0.038902123 -0.038902123 -0.012967374 0.064836875 -0.012967374 0.025934748 0.064836875
0.012967374 -0.025934748 0.038902123 -0.025934748 -0.064836875 0.064836875 0.038902123 -0.064836875
-0.012967374 0.012967374 0.0 -0.051869497 0.025934748 0.0 0.077804245 0.012967374
0.10373899 0.11670637 0.12967375 0.19451061 0.090771616 0.012967374 0.012967374 -0.064836875
0.11670637 0.10373899 0.11670637 -0.064836875 -0.025934748 0.025934748 0.064836875 0.025934748
-0.064836875 0.012967374 0.077804245 0.051869497 0.090771616 -0.051869497 0.038902123 0.10373899
0.051869497 0.28528222 -0.025934748 -0.14264111 0.32418436 0.4668255 0.10373899 0.038902123
0.3501191 0.14264111 0.012967374 0.14264111 0.12967375 0.23341274 0.090771616 -0.038902123
0.12967375 0.064836875 -0.051869497 0.064836875 -0.038902123 -0.025934748 -0.025934748 0.077804245
0.11670637 -0.090771616 -0.10373899 -0.20747799 -0.20747799 -0.42792335 -0.18154323 -0.19451061
0.025934748 0.025934748 -0.10373899 -0.10373899 0.051869497 0.4019886 0.36308646 -0.12967375
-0.077804245 0.42792335 0.53166234 0.6354013 -0.20747799 -0.10373899 -0.22044536 0.0
-0.051869497 -0.051869497 -0.012967374 -0.14264111 -0.15560849 0.051869497 0.4019886 0.10373899
-0.15560849 -0.27231485 -0.2463801 0.038902123 0.20747799 0.090771616 0.12967375 0.11670637
0.10373899 -0.16857587 -0.15560849 -0.12967375 -0.012967374 0.14264111 -0.064836875 -0.14264111
-0.37605384 -0.2593475 -0.27231485 0.012967374 0.064836875 -0.064836875 -0.012967374 -0.16857587
-0.2463801 -0.12967375 0.12967375 -0.2463801 -0.10373899 0.012967374 0.27231485 0.20747799
0.025934748 0.11670637 0.22044536 0.090771616 0.012967374 0.18154323 0.038902123 0.064836875
0.051869497 0.12967375 -0.012967374 -0.41495597 -0.22044536 -0.16857587 -0.064836875 -0.064836875
0.051869497 -0.051869497 0.4538581 -0.090771616 -0.5057276 -0.66133606 -0.4927602 -0.14264111
0.038902123 -0.10373899 0.15560849 0.12967375 -0.038902123 -0.025934748 0.0 0.10373899
-0.11670637 -0.12967375 -0.19451061 0.27231485 0.16857587 0.23341274 0.3501191 0.038902123
-0.23341274 0.2593475 -0.12967375 0.025934748 -0.077804245 -0.077804245 0.37605384 -0.27231485
-0.66133606 -0.31121698 -0.12967375 -0.2593475 -0.12967375 -0.025934748 0.025934748 -0.19451061
-0.2593475 -0.20747799 -0.20747799 0.15560849 -0.090771616 0.051869497 0.16857587 0.025934748
0.10373899 0.064836875 0.22044536 0.19451061 0.077804245 0.15560849 -0.16857587 0.051869497
-0.051869497 0.0 -0.11670637 -0.16857587 -0.6354013 -0.33715174 0.051869497 -0.090771616
-0.14264111 0.012967374 0.0 0.077804245 0.0 0.012967374 0.025934748 -0.038902123
0.2593475 0.31121698 0.051869497 -0.11670637 0.0 -0.090771616 -0.051869497 0.18154323
0.012967374 -0.077804245 0.0 -0.19451061 0.038902123 0.012967374 0.051869497 -0.012967374
00000000: 02ff 04fd fdfc 0304 fdff fe03 080b 0701
00000010: 03fd fdff 05ff 0205 01fe 03fe fb05 03fb
00000020: ff01 00fc 0200 0601 0809 0a0f 0701 01fb
00000030: 0908 09fb fe02 0502 fb01 0604 07fc 0308
00000040: 0416 fef5 1924 0803 1b0b 010b 0a12 07fd
00000050: 0a05 fc05 fdfe fe06 09f9 f8f0 f0df f2f1
00000060: 0202 f8f8 041f 1cf6 fa21 2931 f0f8 ef00
00000070: fcfc fff5 f404 1f08 f4eb ed03 1007 0a09
00000080: 08f3 f4f6 ff0b fbf5 e3ec eb01 05fb fff3
00000090: edf6 0aed f801 1510 0209 1107 010e 0305
000000a0: 040a ffe0 eff3 fbfb 04fc 23f9 d9cd daf5
000000b0: 03f8 0c0a fdfe 0008 f7f6 f115 0d12 1b03
000000c0: ee14 f602 fafa 1deb cde8 f6ec f6fe 02f1
000000d0: ecf0 f00c f904 0d02 0805 110f 060c f304
000000e0: fc00 f7f3 cfe6 04f9 f501 0006 0001 02fd
000000f0: 1418 04f7 00f9 fc0e 01fa 00f1 0301 04ff
